deep-learning/gan/practical/simple-gan/disc.pth (torch, 404344 bytes, 3 tensors)

disc.0.weight f4 [128, 784]
000000 30 cf ea 3d 1b d4 a1 3d 8d 70 b2 bd c0 32 19 bd
       0.11465299 0.07901784 -0.087128736 -0.037401915
000010 a7 56 12 3d 23 d9 99 3d 0b e8 ba 3d f2 d5 14 3e
       0.03572717 0.07512119 0.0912629 0.14534739
000020 33 19 56 bd d1 18 a2 3c 4f 0c 86 bd 3b ea a1 3d
       -0.052270126 0.019787224 -0.065453164 0.07906004
000030 22 33 07 3e aa 8b 12 3e 6c 43 15 3c e7 a5 75 bd
       0.132031 0.1431109 0.009110313 -0.05997267
000040 d0 68 65 3e f4 de d3 3d f2 a3 3c bc 30 59 dd 3d
       0.22403264 0.10345259 -0.011513697 0.10808027
000050 f0 bf 16 3e 19 34 9b 3d a2 c9 8a bd ac 8b eb 3d
       0.14721656 0.07578296 -0.0677674 0.1150125
000060 b3 36 f4 3c 2b 0e a0 3d 8f 9f 29 3c 94 94 c0 3d
       0.029811239 0.07815202 0.010352983 0.09403339
000070 fa fe 62 3e 34 e5 08 3e 0d 14 27 bd 09 1b 7e 3d
       0.22167578 0.13368684 -0.040790606 0.0620375
000080 1a ff f3 3d 53 56 af 3d 9d 21 87 3d e1 9f 00 3d
       0.11913891 0.08561387 0.06598208 0.031402472
000090 60 19 75 bd 6f e7 bc bc d2 58 36 3d 32 10 a0 bc
       -0.059838653 -0.023059575 0.0445183 -0.019538973
0000a0 24 5d 82 bc 42 8c f4 3d 39 eb 11 3b c0 e6 96 3d
       -0.015913554 0.119408146 0.0022265448 0.07368231
0000b0 a9 c4 c3 3d de 04 73 3e 5c 21 65 3e 86 d4 3e bc
       0.09558994 0.23732325 0.22376007 -0.011647349
0000c0 0f f9 3b 3c ac 87 1e 3e ff 19 0e 3e 7f 47 cd bc
       0.011472954 0.15481442 0.13877104 -0.025058506
0000d0 75 a5 a6 3d 29 87 30 3c 6f ad 79 3d 49 b2 bb 3d
       0.08137027 0.010774412 0.060956415 0.091648646
0000e0 84 7c c1 3d b6 0a 01 3e 0f 32 be bc 7f d4 20 3e
       0.094475776 0.12601742 -0.02321723 0.15706061
0000f0 c0 ed 0a bc 14 26 3d 3e 9f ab 4a 3c fd ed 83 3c
       -0.008479536 0.18471557 0.012370019 0.016104693
000100 fe 32 ac 3d 56 5f 61 bd eb a3 0c 3c 2a 7f 36 3d
       0.084081635 -0.05502256 0.008584003 0.044554867
000110 57 87 bb 3c a5 37 bb 3c 84 3a a2 bd 6f 0a d9 3d
       0.022891684 0.022853682 -0.07921317 0.10597693
000120 64 24 02 bc 0f 56 10 3e 63 af 22 3e 61 07 25 3e
       -0.0079432465 0.14095329 0.15887217 0.16116096
000130 8a bc 22 3e 27 40 48 3e 0f 9b 16 bd 79 b8 5b 3d
       0.15892234 0.19555722 -0.03676897 0.053642724
000140 ee 09 d9 bb be 07 4b 3d f2 39 eb 3c 35 78 02 be
       -0.006623498 0.04956793 0.028714154 -0.12741168
000150 2e 6d 6c 3d 87 dd 68 3c f4 7d b4 3d 51 33 24 3e
       0.05772131 0.0142129725 0.08813086 0.160352
000160 e9 ee 2c 3d d2 96 52 bd a3 1b d6 bb b4 49 05 bd
       0.04222003 -0.051413365 -0.0065340563 -0.032540992
000170 5b c2 98 bc 0e 46 96 bd a9 80 b3 bd f9 21 b9 bd
       -0.018647363 -0.073375806 -0.08764774 -0.09039683
000180 ea 45 f4 3d 14 a3 f5 3d 27 cb 13 3e 98 d7 a7 3d
       0.119273975 0.11993995 0.14432965 0.08195418
000190 d9 c5 bf 3e d0 8c dc 3e 7e ca 64 3e a0 9c b5 3e
       0.37455633 0.4307618 0.2234287 0.35471058
0001a0 cc 67 ca 3d 5a b7 61 3d e6 93 7b 3d 26 b1 32 3e
       0.09883079 0.0551065 0.061420344 0.1745039
0001b0 ae 71 29 3e f4 cb 26 3e c3 53 36 3d 77 70 67 3b
       0.16547272 0.1628874 0.044513475 0.0035314837
0001c0 0b 1e 15 3d 3b fc 6c 3d ee 2d 8e 3d 71 96 f9 3d
       0.036405604 0.057857733 0.06942354 0.121868975
0001d0 0b 70 41 bd b0 5c 53 bc b0 27 90 3d 57 d4 d1 bd
       -0.047225993 -0.012900516 0.0703882 -0.10245579
0001e0 bb 7a 1e bd 77 e9 18 bd ba 49 e1 bd ec a6 f5 bc
       -0.038691264 -0.037332024 -0.1100039 -0.029986821
0001f0 20 92 58 bd 90 f0 0c be 82 30 3a 3d ac 67 43 ba
       -0.05287373 -0.13763642 0.045456417 -0.0007454108
000200 b7 63 8c bd 48 d8 a6 3e f9 8c 28 3d 8f 71 fb 3d
       -0.068549566 0.32586884 0.041150067 0.12277519
000210 bf 92 77 3e 71 77 86 3d 2b c4 e0 3d 83 99 05 bd
       0.24177073 0.065657504 0.10974916 -0.032617103
000220 d9 da 4a 3e cc b7 36 3e ec 35 0e 3d 57 36 72 bd
       0.19810046 0.1784355 0.034719393 -0.059133854
000230 69 ad df bc 3a d4 d3 3d 4d 3f e0 bd c9 c2 a6 3d
       -0.027304368 0.103432134 -0.10949574 0.08142621
000240 10 d0 73 bd 0e fc 41 bd b2 62 b0 bc 6f 3b 86 bd
       -0.059524596 -0.04735952 -0.021531437 -0.06554305
000250 72 46 0b be e6 d4 e3 bd af 79 80 be 7d a7 86 be
       -0.13601092 -0.111245915 -0.25092837 -0.26299658
000260 d6 ff 02 be f3 0f c8 be f7 f0 51 be 8b d5 90 be
       -0.12792906 -0.39074668 -0.20502077 -0.2828792
000270 8c 7f 9f 3c 34 c9 62 be 1b fe f4 bd d0 84 1e be
       0.019469999 -0.22147065 -0.11962529 -0.15480351
000280 fc 4d c6 3a bc da 98 3d f3 97 00 be 54 c2 36 bd
       0.0015129442 0.07463595 -0.12557964 -0.04461892
000290 29 bf bc 3c 46 54 f1 bc 53 8f 89 3d 72 6b 10 3d
       0.023040371 -0.02945913 0.0671679 0.035258718
0002a0 f8 16 b6 3d 81 89 98 3d 41 87 bd bd 3e 8d 96 bb
       0.088911 0.07448102 -0.09254313 -0.004594474
0002b0 a5 22 88 3d 44 43 03 3d a0 89 83 3d 62 91 49 be
       0.06647233 0.03204657 0.06422734 -0.19684365
0002c0 26 e0 8e be 3d 2d e0 be 2c b6 a2 be 91 38 bf be
       -0.27905387 -0.43784514 -0.3177961 -0.37347844
0002d0 39 e3 94 be f1 9c 26 be 2b e2 0d bf a7 77 a0 be
       -0.29079607 -0.16270806 -0.5542323 -0.31341287
0002e0 7a 55 1c bf ba 8b a9 be e7 7d db be 2a f4 59 be
       -0.61067927 -0.33114415 -0.42869493 -0.21284547
0002f0 f1 b4 34 be ff 36 2d be df 85 ce bc 5f 21 48 be
       -0.17647149 -0.1691551 -0.02521032 -0.1954398
000300 18 43 63 bd 3f 5c 59 bc b2 00 14 bd c2 36 9d 3d
       -0.055483907 -0.013266622 -0.036133476 0.0767646
000310 f7 0f 87 bb 15 f1 88 bc eb ed a8 3c 38 18 e9 3d
       -0.004121776 -0.01671652 0.02062126 0.113815725
000320 0a 35 c3 b9 18 f3 f7 3d ce d2 47 bd 5c b6 65 bd
       -0.00037232816 0.12106913 -0.048785023 -0.056082115
000330 08 b8 b4 bd e2 b1 47 be 7a 8c 9b be d8 88 8b 3c
       -0.08824164 -0.1950145 -0.30380613 0.017033026
000340 9e 30 18 be 47 49 57 3e 77 1a 6f 3d 73 b0 7e 3d
       -0.14862296 0.21024047 0.05837485 0.062179994
000350 a4 d7 4d 3d ee b2 83 3e e4 37 6e 3e 00 31 85 3e
       0.05025448 0.2572245 0.23263508 0.26013947
000360 7e e0 95 3d 47 01 ff 3d 9c f7 64 bd 39 7a 51 bd
       0.07318209 0.124514155 -0.0559002 -0.05114195
000370 3f 0d c0 bd 2e f7 50 bd 41 3c 85 bd 0f 5c 3a 3d
       -0.093775265 -0.05101698 -0.06505633 0.04549795
000380 fe a5 1e 3e 3c ef 4d 3e 17 3a 2a 3e f3 01 b8 3d
       0.15493008 0.20110792 0.16623722 0.08984747
000390 92 4f 54 3e 9c 82 61 3e c3 56 c0 ba 71 02 80 bd
       0.20733479 0.2202248 -0.0014674295 -0.06250466
0003a0 71 9c 79 3c 39 1d 35 be 6c 3d f9 3d 26 ab 89 be
       0.015235052 -0.17686929 0.121699184 -0.26888388
0003b0 75 76 8d be f9 4c dd bd 99 89 98 be ff 73 11 be
       -0.27629438 -0.10805697 -0.2979248 -0.14204405
0003c0 12 ab fd 3d 41 32 24 3e e9 2d 33 3e e5 cd 54 3d
       0.12386145 0.16034795 0.17497982 0.05195417
0003d0 54 59 57 3e 7c 40 20 be 22 eb ac 3d d1 67 55 be
       0.2103017 -0.15649599 0.084432855 -0.20840384
0003e0 94 d3 6c be 76 fb 12 be 33 53 8e bb e1 8d 01 3e
       -0.23127586 -0.14353737 -0.004343414 0.12651779
0003f0 fb 4c 97 bd e1 05 7d 3b 6d 5f 5f 3e 09 11 5a 3e
       -0.0738773 0.003860824 0.21813746 0.21295561

disc.0.bias f4 [128]
000000 bc 3c 92 bf fa 32 bf 3f fd 67 8c bf 40 f6 c3 3f
       -1.1424785 1.4937432 -1.0969235 1.5309525
000010 d1 58 32 3f f3 85 23 3f b4 86 8b 3f cc 82 a5 3f
       0.69666773 0.63876265 1.0900483 1.2930541
000020 e7 9d da 3f ea 7e c2 3f db 55 b4 3f b7 67 e6 bf
       1.7079438 1.5194981 1.4088701 -1.8000401
000030 44 29 01 3c a4 aa d6 3f fa c5 a0 bf bb 88 a6 3f
       0.007883374 1.6770825 -1.2560418 1.3010477
000040 b2 d8 e5 3f 1c db cb 3f 15 23 61 3f 78 04 fe 3f
       1.7956755 1.5926242 0.87944156 1.9845114
000050 67 53 a2 3f 7b 02 a1 3f 10 cf f1 3f 39 80 73 bd
       1.2681702 1.2578882 1.8891315 -0.059448455
000060 f4 e8 b0 3f c0 f1 52 3f be 26 71 3f f3 06 ec 3f
       1.3821092 0.8240013 0.9419974 1.8439621
000070 fb 62 84 3f d5 05 b3 bf 92 93 df 3f 63 c6 64 bf
       1.0342706 -1.3986155 1.746691 -0.89365214
000080 cd 10 c3 3f af 44 30 3f c5 53 f8 3e e3 9e e2 3e
       1.5239502 0.688548 0.4850141 0.44261846
000090 af 84 0f 3f 5d 92 00 bf 8d e2 f0 3f dc 52 d1 3f
       0.56061834 -0.5022333 1.8819138 1.6353412
0000a0 11 1f af 3f 37 aa c7 3f 5a a7 55 3d b0 4e 0b bf
       1.3681356 1.559882 0.052161552 -0.5441694
0000b0 fd f6 bf 3f 22 4f 92 bf 3f df e3 be 79 06 ef be
       1.499725 -1.14304 -0.4450626 -0.46684626
0000c0 54 03 0d 40 df 49 80 3f f2 62 a2 3f c6 e3 ce 3d
       2.2033281 1.0022544 1.2686446 0.10102038
0000d0 90 51 37 3f 37 9d d0 3f 0c 8c c5 bf eb 1b dd 3f
       0.7160883 1.6297978 -1.5433364 1.7274145
0000e0 97 c1 ee 3f 24 95 d0 be 8b 07 b9 3f bb 8f ce 3f
       1.8652829 -0.40738785 1.4455427 1.6137613
0000f0 cc 9d e6 3f 56 8a d0 3f f8 b7 de 3f 4b 73 a7 bf
       1.8016906 1.6292217 1.7399893 -1.308206
000100 9b e8 92 3f 03 48 20 bf 04 ad f7 3e 4a 51 df 3f
       1.1477236 -0.6260988 0.48374188 1.7446682
000110 66 0b ab 3f fb 42 c2 bf a2 42 c9 3f 00 34 a1 3f
       1.3362854 -1.5176691 1.572346 1.2593994
000120 f5 44 74 3f 28 a8 48 bf 4b 77 90 bf 8a 07 2e c0
       0.9541772 -0.78381586 -1.1286405 -2.7192101
000130 34 0d df 3f f3 9a a9 3f 83 4f f1 3f a7 77 a2 3f
       1.7425904 1.3250412 1.885239 1.2692765
000140 53 ca b2 3f 18 19 fa 3f 55 b4 b4 3f 10 19 a5 bf
       1.3967994 1.9538908 1.4117533 -1.2898273
000150 a4 5c dc 3f 0f 68 e4 3f 4e d2 20 3f 2f 3b 7b 3f
       1.7215772 1.7844256 0.628209 0.9813718
000160 f8 36 8a bd 51 ad ac 3f af ae 9e 3f bc 09 24 bf
       -0.06748766 1.3490392 1.2397059 -0.64077353
000170 3a c7 92 bf 26 f2 a0 3f bb 41 3f bf 3a 2a c8 3f
       -1.1467049 1.2573898 -0.7470967 1.5637887
000180 b6 53 49 3e a1 a9 19 3f 50 c1 b7 3f ba 2a a6 3f
       0.1966084 0.6002446 1.4355869 1.2981789
000190 60 0e 74 bf 48 08 0d bf e1 09 96 3f a5 b6 4f 3f
       -0.95334435 -0.5509076 1.1721765 0.8113807
0001a0 2f a7 ae 3f 44 40 eb 3f 76 67 f7 3f 5d 08 a8 bf
       1.364477 1.8378987 1.9328449 -1.3127552
0001b0 4a af ca 3f 48 a9 ea 3f 80 6a 35 be 93 6d d5 be
       1.5834744 1.833291 -0.17716408 -0.4168516
0001c0 f4 90 91 3e 26 a9 f1 3f c3 9a f2 3f a5 af b7 3f
       0.28430903 1.8879745 1.895348 1.4350477
0001d0 9c 87 3b 3c bd 8f d2 3f dc 60 ab 3f b9 c3 c7 be
       0.011445906 1.6450115 1.3388934 -0.39016512
0001e0 77 6c b8 3f ec 8f bd bc b9 a0 cc bf 74 64 d8 3f
       1.4408101 -0.023139916 -1.5986549 1.6905656
0001f0 a2 d1 ac 3f be 94 c3 3f b4 21 bd 3f e3 4f 4f bf
       1.3501475 1.5279768 1.477591 -0.8098127

disc.2.weight f4 [1, 128]
000000 a6 c0 24 3e 00 d1 aa bd 8c a7 97 3e 5d 60 2a bd
       0.16089115 -0.08340645 0.29620016 -0.041595805
000010 64 17 93 bd a3 44 d4 bd 60 e1 8a bc c6 07 72 bd
       -0.07182196 -0.10364654 -0.01695317 -0.059089445
000020 5d 27 14 bd 45 a6 91 be 7a f6 55 bd 98 fe cb 3d
       -0.036170352 -0.28447166 -0.05223701 0.09960669
000030 d1 b6 ac 3d 31 8f ba bd 20 fe ea 3d 8d 8e 6c bd
       0.08433307 -0.09109343 0.11474252 -0.057753135
000040 fe 15 99 bd f0 e4 60 bd 84 59 96 bd 74 24 bf bc
       -0.07474898 -0.05490583 -0.073412925 -0.023332812
000050 d6 37 51 be e1 b4 23 bd c9 95 fc bc fa 73 c6 3c
       -0.20431456 -0.03996742 -0.030833142 0.024225224
000060 63 31 07 be 3c 2e 8a bd 69 84 11 be b0 35 42 bd
       -0.13202433 -0.067471 -0.14210667 -0.04741448
000070 eb 27 9d bd c1 2b 5f 3d 57 b0 aa bd a4 76 85 3d
       -0.076736294 0.054485086 -0.083344154 0.065167695
000080 c7 05 9c bd 1d c9 23 bd af 49 df bd 0b 6e 4e bd
       -0.076182894 -0.03998672 -0.10902726 -0.050397914
000090 3a ee 63 bd 45 6d 06 3e 55 ae 86 bd cc bd 62 bd
       -0.055647112 0.1312762 -0.0657622 -0.055356786
0000a0 e6 6c 16 bd 87 4a 9f bd 12 1d cb 3d 13 47 31 3e
       -0.036724947 -0.07777887 0.09917654 0.17312269
0000b0 85 3a 73 bd 2a 83 4b 3d 4d e6 a7 3d f8 fc dc 3d
       -0.05938198 0.049685635 0.08198223 0.107904375
0000c0 c9 34 a2 bd 15 28 a0 be 17 be 94 bd 0b 47 bd be
       -0.07920224 -0.3128058 -0.07262819 -0.36968264
0000d0 02 94 66 bd 28 de da bd 11 e0 1e 3d 9d 95 b9 bd
       -0.056293495 -0.10686904 0.038787905 -0.090617396
0000e0 a1 98 99 bd 08 60 88 3d fb 7e 75 bd 2b 35 b9 bd
       -0.07499815 0.066589415 -0.05993555 -0.09043344
0000f0 3b 05 74 bd 65 4c 21 be e6 11 1a bd d3 70 b4 3d
       -0.0595753 -0.15751798 -0.037614726 0.08810582
000100 be db c8 bd 97 04 7b 3d a6 d9 26 bd 05 82 7b bd
       -0.098075375 0.061283674 -0.04073491 -0.061403293
000110 2d 51 8d bd 75 65 ac 3d 5d ee 09 be 14 e9 f2 bd
       -0.06900249 0.08417789 -0.13469835 -0.118608624
000120 ad 49 e7 bc 5e 5f 63 3d bd 3d db 3d 72 d8 18 3e
       -0.028233374 0.05551087 0.10705135 0.14926317
000130 1a a8 9b bd 80 95 1d be a9 fd 4d bd fb cd ea bd
       -0.07600422 -0.15389061 -0.050290737 -0.11465069
000140 81 db 38 bd e2 36 ab bd b8 f1 aa bd 08 ac 96 3d
       -0.04513121 -0.083600774 -0.083468854 0.07357031
000150 93 05 8c bd a9 7b 43 bd 33 ab 57 bd 9c 44 8e bd
       -0.06837001 -0.047725353 -0.052653503 -0.0694668
000160 96 d2 fd 3d 8a 52 b2 bd a3 83 75 be 4b 70 1b 3e
       0.12393682 -0.08707149 -0.23975997 0.15179555
000170 2c 8a db 3d 6b f8 6c be 4b 4c 03 3e 32 4f 93 bd
       0.107197136 -0.23141639 0.12822072 -0.0719284
000180 25 ca 8b 3d 23 7c d2 bc 61 99 60 bd 44 c9 9e bd
       0.068256654 -0.025693959 -0.054833774 -0.07753232
000190 87 9a 3b 3e a6 3b 5a 3e d0 20 0d bd a4 8c 98 bd
       0.18320666 0.21311817 -0.03445512 -0.074487
0001a0 46 6d be bd 4e 64 b0 bd a2 d2 5d bd c0 48 0f 3e
       -0.09298186 -0.086128816 -0.054155953 0.13992596
0001b0 53 4b f9 bb cb 2d 70 bd 1f e7 df 3d 2b 11 a1 3d
       -0.0076078563 -0.05863742 0.10932755 0.07864603
0001c0 42 8e 1f be e1 f5 58 bd 1c d9 51 bd 80 be 93 bd
       -0.15581611 -0.052968863 -0.051232442 -0.07214069
0001d0 97 4d c6 3d c9 c2 bc bd ec c7 62 bd 71 d7 a6 3d
       0.09682768 -0.0921684 -0.05536644 0.08146561
0001e0 e0 2f 6d bd 4a bb 05 3e 19 29 13 3e 05 ca 9e bc
       -0.057906985 0.13059726 0.14371146 -0.01938344
0001f0 41 59 a0 bd 56 df d0 bc 05 fd bb bd 60 12 97 3d
       -0.07829524 -0.02549712 -0.09179119 0.07376552
