deep-learning/gan/practical/simple-gan/gen.pth (torch, 939888 bytes, 4 tensors)

gen.0.weight f4 [256, 128]
0	0xbd561f5d	-0.052276004
1	0xbb9b17d2	-0.004733064
2	0xbb11f652	-0.0022272062
3	0xbb25d633	-0.0025304675
4	0x3c5ccd8c	0.013476741
5	0xbc064b30	-0.008196637
6	0xbde3e2a4	-0.11127213
7	0xbc3694dd	-0.01114389
8	0x3dcf2b8c	0.10115728
9	0x3e2b9e00	0.16759491
10	0xbd7ae563	-0.061253916
11	0x3ccb1aaf	0.024792997
12	0x3e02dd69	0.12779774
13	0x3e15526c	0.14582223
14	0xbc99eef9	-0.018790709
15	0xbdb8108e	-0.089875326
16	0xbdb00ed6	-0.0859658
17	0xbde577a0	-0.11204457
18	0x3e39ba9e	0.18137595
19	0xbda3cb31	-0.0799774
20	0xbd990c31	-0.074730285
21	0x3bf500ac	0.0074768867
22	0x3c7c092a	0.015383044
23	0x3d2bcc72	0.04194302
24	0xbd56f45e	-0.05247914
25	0x3d56d0e0	0.052445292
26	0x3dea5a44	0.11442998
27	0x3e12bf69	0.1433083
28	0x3d03cce6	0.03217783
29	0xbd5bd119	-0.053666208
30	0xb91d8370	-0.00015021651
31	0x3cade329	0.021226482
32	0xbd1386c3	-0.03601719
33	0x3c3c1b8e	0.011481179
34	0x3d5a48a1	0.05329192
35	0x3c1593f8	0.009129517
36	0xbb6a8e05	-0.0035790217
37	0x3dd0fb24	0.10204151
38	0xbe02eb97	-0.12785183
39	0xbc69c063	-0.01426706
40	0xbd10a18d	-0.035310317
41	0x3df846f4	0.12122908
42	0xbd9a99a7	-0.07548838
43	0x3deaf931	0.11473311
44	0x3d8d382c	0.068954796
45	0xbdcab2e8	-0.09897405
46	0xbd761d6e	-0.06008666
47	0x3dd8054a	0.10547884
48	0x3d9b1c8f	0.075738065
49	0x3c67c315	0.014145632
50	0x3d413caa	0.047176994
51	0x3d755215	0.059892733
52	0x3b4e08c8	0.003143834
53	0xbd8b1195	-0.06790463
54	0xbccf35a7	-0.025294138
55	0xbd437a2a	-0.047723927
56	0x3e4d128d	0.20026608
57	0xbe2d6c84	-0.16935927
58	0xbdf0cff1	-0.11758412
59	0xbd25f3b3	-0.040515613
60	0xbd03ed80	-0.03220892
61	0xbcf66c7f	-0.030081032
62	0x3dabb292	0.08383669
63	0xbd2ffcd0	-0.04296571
64	0x3df6404f	0.12023985
65	0xbd8e6e8e	-0.069546804
66	0x3e215b9e	0.15757605
67	0xbe56f88d	-0.20993252
68	0xbd09c63b	-0.033636313
69	0x3cfc78e6	0.030819368
70	0x3de69a65	0.11259917
71	0x3d489bfc	0.048976883
72	0x3e0cc545	0.13747127
73	0x3babcb73	0.005242759
74	0x3dabeb45	0.083944835
75	0x3daa7135	0.08322374
76	0x3e3c5d6a	0.1839501
77	0xbceabaa5	-0.028653452
78	0x3d3c986d	0.046043802
79	0xbbcfe7b4	-0.00634476
80	0xbd878192	-0.066165105
81	0xbb0a3c22	-0.002109297
82	0xbccc2393	-0.024919307
83	0xbe0b02ad	-0.1357524
84	0xbd72db76	-0.059291326
85	0x3d6d0891	0.057869498
86	0xbd943202	-0.07236101
87	0xbd23d4e2	-0.039997943
88	0xbd6d84de	-0.05798804
89	0xbcab189b	-0.020885756
90	0x3e0bf986	0.13669404
91	0x3e3131a0	0.17304087
92	0x3dacbf85	0.08434967
93	0x3df47bf3	0.11937704
94	0xbd2bae7e	-0.041914456
95	0x3db11256	0.086460754
96	0x3c465aec	0.012106638
97	0xbe1ed4a3	-0.15510802
98	0xbd276762	-0.040870078
99	0x3de21e1e	0.11040901
100	0x3deb1e4e	0.114803895
101	0x3e009907	0.12558375
102	0x3c492c0a	0.012278566
103	0x3db9aa4a	0.09065683
104	0xbe0acb2e	-0.1355407
105	0x3bab7f55	0.005233685
106	0xbd5f99fd	-0.054590214
107	0xbe6668a4	-0.22500855
108	0x3d75bcff	0.059994694
109	0xbd48347d	-0.04887818
110	0x3c0b87aa	0.008516232
111	0x3d43fd6c	0.047849104
112	0xbc67aec5	-0.014140789
113	0xbdcb0d86	-0.09914689
114	0xbe04a8e0	-0.12955046
115	0xbe3d39e8	-0.1847912
116	0xbd6fd81f	-0.05855572
117	0xbd6c8ecf	-0.05775338
118	0xbe228980	-0.15872765
119	0x3b9e7a55	0.0048363605
120	0x3c95762a	0.018244822
121	0x3d66693b	0.0562527
122	0x3cfac478	0.030611262
123	0x3d325ab4	0.043543532
124	0xbc3ee17a	-0.0116504375
125	0x3d9fe145	0.07806639
126	0xbd34e553	-0.044164013
127	0xbc9bea7b	-0.019032707
128	0xbd136dcb	-0.03599338
129	0x3d4378c7	0.047722604
130	0x3d7d4153	0.061829876
131	0x3da36e74	0.07980052
132	0x3cb173bb	0.02166163
133	0xbd994a8e	-0.07484923
134	0xbcdd729c	-0.02703219
135	0xbd11cd6d	-0.0355963
136	0x3d8b4307	0.06799894
137	0x3d48da17	0.04903611
138	0x3dd73341	0.10507823
139	0x3d7edf41	0.06222463
140	0xbd8aec79	-0.06783385
141	0xbde27361	-0.11057163
142	0xbe1e330f	-0.15449165
143	0xbd8ad7e4	-0.06779459
144	0xbd224a70	-0.03962177
145	0xbcbcdd5a	-0.023054767
146	0xbdb4f0d7	-0.08834999
147	0xbddab142	-0.106783405
148	0xbe03da22	-0.1287618
149	0x3c9a4559	0.018831896
150	0xbdac871a	-0.08424206
151	0x3e17475e	0.14773318
152	0xbd493317	-0.04912099
153	0x3be4896a	0.006974389
154	0xbcbe124d	-0.023202086
155	0x3d02c9d9	0.03193078
156	0xbd9ab077	-0.07553189
157	0x3e6a8906	0.22903833
158	0xbaeadfab	-0.0017919441
159	0x3de250db	0.11050578
160	0x3de9abcb	0.1140972
161	0x3dc46c30	0.09590948
162	0x3d544e50	0.051832497
163	0x3da1d912	0.07902731
164	0x3d6256e4	0.055258647
165	0xbd4b2015	-0.049591143
166	0xbbfc260f	-0.0076949666
167	0x3d505070	0.05085796
168	0x3defbc0b	0.11705788
169	0xbd11d2c0	-0.035601377
170	0xbd49a442	-0.049228914
171	0x3d076f35	0.03306504
172	0x3de5f5a3	0.11228492
173	0x3d4e8dcb	0.050428193
174	0xb9a7dce6	-0.00032017304
175	0xbd212a70	-0.039347112
176	0x3cfe8c0c	0.031072639
177	0x3c73f037	0.014888815
178	0xba9ec2b1	-0.0012112466
179	0xbde299a6	-0.11064462
180	0x3daefcb9	0.08544297
181	0xbd861a72	-0.06548013
182	0xbd49781a	-0.049186803
183	0x3cf7810e	0.030212905
184	0x3db89355	0.09012476
185	0xbdc6ca4c	-0.09706554
186	0xbe03b1ab	-0.12860744
187	0xbe024dbf	-0.1272497
188	0xbc31dbeb	-0.010855655
189	0x3d95826e	0.07300268
190	0x3bab68d9	0.0052310047
191	0x3d2c90dd	0.04213034
192	0xbca3c574	-0.019991614
193	0xbbdacceb	-0.00667726
194	0xbdd39c41	-0.103325374
195	0xbdcadbd0	-0.09905207
196	0xbdac2f16	-0.084074184
197	0x3d0d9c0c	0.034572646
198	0xbe3dbdd0	-0.18529439
199	0x3d89d440	0.067299366
200	0x3d23ba88	0.039972812
201	0xbc866201	-0.016404154
202	0xbcbcd3da	-0.023050237
203	0xbd7dc2a2	-0.061953194
204	0xbcce5711	-0.025188
205	0xbce72be7	-0.028219176
206	0x3d3dee22	0.04636968
207	0xbd7a7d0d	-0.061154414
208	0xbd200654	-0.039068535
209	0x3ddc8aac	0.10768637
210	0x3dadbc90	0.08483231
211	0xbdbf0ee2	-0.093290105
212	0xbda708d5	-0.081559815
213	0xbc7501c3	-0.014954033
214	0xbda874d4	-0.08225408
215	0x3dcdf01d	0.100555636
216	0xbccded92	-0.025137696
217	0x3cab395f	0.02090138
218	0x3bbf364b	0.0058353296
219	0x3dfa1539	0.12211079
220	0xbc3a3223	-0.011364493
221	0x3e1f96a7	0.15584813
222	0xbbc35db0	-0.005962096
223	0xbd912f13	-0.07089057
224	0xbc5c8e63	-0.013461682
225	0xbcd2c9b9	-0.025730954
226	0x3e81c12c	0.2534269
227	0xbc389bce	-0.0112676155
228	0x3e0aaaeb	0.13541763
229	0x3db089af	0.08620011
230	0xbe35caba	-0.17753115
231	0x3c0de804	0.008661274
232	0x3d26854d	0.04065447
233	0x3d88df14	0.06683174
234	0x3d8a5101	0.067537315
235	0xbc75081f	-0.0149555495
236	0xbd9c6412	-0.076362744
237	0x3c8dd024	0.017311163
238	0x3c92f153	0.017937338
239	0x3da3b87c	0.07994172
240	0xbd54be0b	-0.05193905
241	0x3d84c2e1	0.06482483
242	0x3ded061f	0.11573433
243	0x3d9fcc65	0.07802657
244	0xbcbb4bc8	-0.022863284
245	0x3d019976	0.031640492
246	0xbd996582	-0.07490064
247	0x3cad1264	0.021126933
248	0x3c823388	0.015893713
249	0x3e3803fd	0.17970271
250	0x3ca1f07e	0.019767996
251	0x3cf20945	0.029545436
252	0xbc7ffba6	-0.0156239625
253	0x3d97c57d	0.07410715
254	0x3de75ec8	0.11297375
255	0x3d961912	0.073290005

gen.0.bias f4 [256]
0	0xbf0b9363	-0.5452177
1	0xbf0710fd	-0.527603
2	0xbf110df7	-0.56661934
3	0xbf6ff237	-0.93728966
4	0xbef63f63	-0.48095235
5	0xbf5e6f8b	-0.8688895
6	0xbf9542eb	-1.1661047
7	0xbf89e219	-1.0772125
8	0xbd36798c	-0.04454951
9	0xbf3523eb	-0.7075793
10	0xbf711016	-0.9416517
11	0xbf43eac9	-0.7653013
12	0xbf1cc5c7	-0.61239284
13	0xbf3b4653	-0.7315418
14	0xbf170af4	-0.5900109
15	0xbf26caa8	-0.6515298
16	0xbf156cff	-0.5836944
17	0xbef489fb	-0.4776152
18	0xbf385766	-0.7200836
19	0xbf5be35d	-0.85893804
20	0xbf07cb0f	-0.5304422
21	0xbf2aba65	-0.66690665
22	0xbf1292b3	-0.57255095
23	0xbf0992b9	-0.53739506
24	0xbf6aa4ea	-0.9165789
25	0xbf17d833	-0.5931427
26	0xbf071d56	-0.5277914
27	0xbf1fdb32	-0.6244384
28	0xbf5da2b9	-0.8657642
29	0xbf37c205	-0.71780425
30	0xbf6022e5	-0.87553245
31	0xbf259557	-0.64681
32	0xbfcb0bc4	-1.5862966
33	0xbe90a7fc	-0.28253162
34	0xbf30a0fc	-0.6899564
35	0xbf52a162	-0.822775
36	0xbf7e434c	-0.99321437
37	0xbf84832a	-1.0352528
38	0xbf89f72e	-1.0778558
39	0xbfaacc9b	-1.3343691
40	0xbeb886f9	-0.36040476
41	0xbf367dd3	-0.7128574
42	0xbf4c1358	-0.79717016
43	0xbf6247d1	-0.88390833
44	0xbedfc595	-0.4370543
45	0xbf67aaee	-0.90495193
46	0xbf2aebd4	-0.66766095
47	0xbed37f4f	-0.41308066
48	0xbf1a2f83	-0.6022875
49	0xbf3970b4	-0.72437596
50	0xbe87d51b	-0.26529774
51	0xbe2ca1af	-0.16858552
52	0xbf021caf	-0.5082502
53	0xbf822290	-1.0166798
54	0xbf90ec1e	-1.1322057
55	0xbf7d91d9	-0.9905067
56	0xbf8a169a	-1.0788147
57	0xbe755954	-0.23959857
58	0xbf874457	-1.0567731
59	0xbf9c95a1	-1.2233163
60	0xbf57f8f0	-0.84364223
61	0xbf735efa	-0.950668
62	0xbede4b00	-0.43416595
63	0xbebf8b58	-0.37410998
64	0xbf587168	-0.84548044
65	0xbce232f1	-0.027612181
66	0xbf066242	-0.5249368
67	0xbfa069ab	-1.2532247
68	0xbf682d84	-0.9069445
69	0xbf6cf1f2	-0.9255668
70	0xbd89d853	-0.06730714
71	0xbf5829cb	-0.8443877
72	0xbf9c53d8	-1.2213087
73	0xbf2c9204	-0.674103
74	0xbe42e2b5	-0.19031794
75	0xbf156d3b	-0.583698
76	0xbf519b84	-0.81877923
77	0xbee0c1cf	-0.43897864
78	0xbf452edf	-0.77024645
79	0xbf87fe60	-1.0624504
80	0xbfa3c6f1	-1.2795087
81	0xbf09eafa	-0.5387417
82	0xbf359dcc	-0.70943904
83	0xbf7b4c5e	-0.981634
84	0x3dbdd1b3	0.092685126
85	0xbf4785d1	-0.7793856
86	0xbf1cf283	-0.61307544
87	0xbf22db3c	-0.63615775
88	0xbf466642	-0.77499783
89	0xbf61e8ec	-0.88246036
90	0xbf4a5ebe	-0.79050815
91	0xbf1942f4	-0.5986779
92	0xbf076eb7	-0.5290331
93	0xbf96167f	-1.1725615
94	0xbf2105fd	-0.6289976
95	0xbf32c6fe	-0.6983489
96	0xbf197d35	-0.59956676
97	0xbfa01364	-1.2505918
98	0xbe8b9fec	-0.27270448
99	0xbf59a187	-0.85012096
100	0xbe666d6e	-0.22502682
101	0xbf66aa1f	-0.90103334
102	0xbf2e9e7d	-0.68210584
103	0xbf59ce5c	-0.85080504
104	0xbec581a3	-0.38575467
105	0xbf1a4eab	-0.6027629
106	0xbf4adbde	-0.7924174
107	0xbf4cc85b	-0.7999322
108	0xbf0704dc	-0.5274179
109	0xbfa681d3	-1.3008369
110	0xbeff309f	-0.49841782
111	0xbf7e6ddf	-0.993864
112	0xbf559331	-0.8342772
113	0xbf56329d	-0.8367098
114	0xbe260b01	-0.16215135
115	0xbf627bcd	-0.88470155
116	0xbf644228	-0.89163446
117	0x3db58761	0.08863712
118	0xbecf8683	-0.40532312
119	0xbf7d452f	-0.9893369
120	0xbf6b48bc	-0.9190786
121	0xbf18f216	-0.59744394
122	0xbf09829c	-0.5371492
123	0xbe9fd80a	-0.31219512
124	0xbdb4369f	-0.08799481
125	0xbec6962d	-0.3878645
126	0xbf5240a1	-0.82129866
127	0xbf8525f8	-1.0402212
128	0xbf500dcb	-0.81271046
129	0xbf16e27a	-0.58939326
130	0xbf40c3e2	-0.75298893
131	0xbf991c22	-1.196171
132	0xbf15214e	-0.58253944
133	0xbe2686ea	-0.16262403
134	0xbf3c3798	-0.7352233
135	0xbf58c83a	-0.8468052
136	0xbea00942	-0.31257063
137	0xbf6f90c4	-0.9358027
138	0xbf4d0a00	-0.80093384
139	0xbf48bd69	-0.78414017
140	0xbf50bdb9	-0.81539494
141	0xbf74f37d	-0.95684034
142	0xbfae3d0b	-1.3612379
143	0xbf49b3db	-0.7879006
144	0xbf655761	-0.89586455
145	0xbf4ba036	-0.7954134
146	0xbf9710be	-1.1801984
147	0xbf84e989	-1.0383769
148	0xbea73d2e	-0.32663864
149	0xbf30192d	-0.68788415
150	0xbf741db9	-0.95357853
151	0xbf997cc4	-1.19912
152	0xbe77197d	-0.24130817
153	0xbf3cac85	-0.73700744
154	0xbf30845b	-0.6895196
155	0xbf4c2477	-0.7974314
156	0xbeb17d7b	-0.34666047
157	0xbf0b2e5d	-0.5436762
158	0xbf98de52	-1.1942847
159	0xbf4e5847	-0.8060345
160	0xbf8ab7c6	-1.0837333
161	0xbf415d23	-0.7553274
162	0xbf76e6a2	-0.9644567
163	0xbf445b47	-0.7670178
164	0xbf3fbbcc	-0.7489593
165	0xbf094a08	-0.5362859
166	0xbf1a9ec0	-0.60398483
167	0xbfb6ec66	-1.4290893
168	0xbf22ce90	-0.6359644
169	0xbf62fb69	-0.8866487
170	0xbf6ef497	-0.93341964
171	0xbf4aa29f	-0.7915439
172	0xbf605cee	-0.876418
173	0xbf0b8a20	-0.5450764
174	0xbf200c5d	-0.62518865
175	0xbf213b24	-0.62980866
176	0xbf0b3c01	-0.54388434
177	0xbf1153f2	-0.56768715
178	0xbf4afaa5	-0.79288703
179	0xbf1fe44e	-0.6245774
180	0xbf80bb5f	-1.0057181
181	0xbf145506	-0.57942235
182	0x3f038658	0.5137687
183	0xbf87cd19	-1.0609466
184	0xbf82df38	-1.0224371
185	0xbf06e03f	-0.5268592
186	0xbed156e0	-0.40886593
187	0xbf242ba1	-0.6412907
188	0xbf57c9f3	-0.84292525
189	0xbf4415a0	-0.765955
190	0xbf7204bf	-0.9453849
191	0xbf5336ac	-0.825053
192	0xbf3effca	-0.74609053
193	0xbf4f68a9	-0.81019074
194	0xbf034ab5	-0.5128587
195	0xbf154931	-0.58314806
196	0xbf02b543	-0.51057833
197	0x3e7fc8b0	0.249789
198	0xbf96e8c4	-1.1789784
199	0xbf544eeb	-0.8293292
200	0xbf1945f9	-0.59872395
201	0xbf5a214e	-0.8520707
202	0xbf710de0	-0.94161797
203	0xbf68335c	-0.9070337
204	0xbf1fcf68	-0.6242585
205	0xbf1106f4	-0.56651235
206	0xbf2344c7	-0.6377682
207	0xbee5947b	-0.44839844
208	0xbf72b2d7	-0.9480414
209	0xbe30047a	-0.17189208
210	0xbd3061bb	-0.043061953
211	0xbf7a8333	-0.97856444
212	0xbf36e16b	-0.7143771
213	0xbf1bfe4e	-0.60934913
214	0xbf2db4df	-0.6785411
215	0xbf4f654c	-0.8101394
216	0xbf5f4c26	-0.8722557
217	0xbf081ea0	-0.5317173
218	0xbf31d7f5	-0.6947015
219	0xbf0d2cf8	-0.5514674
220	0xbf3ed343	-0.7454111
221	0xbf05f8fa	-0.52333033
222	0xbf3de59f	-0.741785
223	0xbeb6ff79	-0.35741785
224	0xbf5eac83	-0.8698198
225	0xbf2f92cc	-0.6858337
226	0xbfa2ec40	-1.2728348
227	0xbf0c18d0	-0.5472536
228	0xbf460a4e	-0.77359474
229	0xbf4b5a3f	-0.7943458
230	0xbf28c5dd	-0.65926915
231	0xbec942f3	-0.3930889
232	0xbf6797aa	-0.90465796
233	0xbf75b040	-0.9597206
234	0xbf57c26b	-0.84281033
235	0xbf494e9d	-0.7863558
236	0xbf7ca085	-0.98682433
237	0xbf858df6	-1.0433948
238	0xbf3cf317	-0.73808426
239	0xbee8ca6d	-0.4546694
240	0xbffaac62	-1.9583857
241	0xbeac956b	-0.33707747
242	0xbf91f3c1	-1.1402513
243	0xbf7a6c78	-0.9782176
244	0xbe7a4d6d	-0.24443598
245	0xbf35620f	-0.7085275
246	0xbf170076	-0.5898508
247	0xbf351be1	-0.70745665
248	0xbf21963b	-0.6311986
249	0xbf3b4d8e	-0.73165214
250	0xbf8460d8	-1.0342054
251	0xbfb92f3d	-1.4467541
252	0xbfb2e238	-1.3975286
253	0xbf3cf70b	-0.7381446
254	0xbf92c040	-1.146492
255	0xbf0b4f70	-0.54418087

gen.2.weight f4 [784, 256]
0	0xbf014ce0	-0.50507927
1	0xbedadb9e	-0.4274568
2	0xbd6b8dfe	-0.05750846
3	0x3e5149cb	0.20438306
4	0xbd0f3473	-0.03496213
5	0x3db9db69	0.09075052
6	0x3ea46545	0.32108513
7	0x3ef2485b	0.47320828
8	0xbebb17fd	-0.3654174
9	0xbead27f5	-0.33819547
10	0xbc4e4dc9	-0.012591788
11	0xbdfd0fad	-0.123565055
12	0xbf19e599	-0.60115963
13	0xbeb927bc	-0.36163127
14	0xbdd363ba	-0.10321756
15	0xbe0fba73	-0.14035968
16	0xbdbb60ea	-0.09149344
17	0xbe815774	-0.25262034
18	0xbf013c6a	-0.5048281
19	0x3cf5d3d9	0.030008243
20	0xbf2bb098	-0.67066336
21	0x3dbfc9f3	0.09364691
22	0xbdcdc7db	-0.10047885
23	0xbf16d267	-0.589148
24	0x3e1f3994	0.15549308
25	0xbd943557	-0.07236736
26	0xbe2fae29	-0.1715628
27	0xbeb7278b	-0.35772356
28	0xbe8d5fcf	-0.2761216
29	0x3e0573cd	0.13032456
30	0xbf1a1a27	-0.60196155
31	0xbe8642ec	-0.26222932
32	0x3f32fe38	0.6991916
33	0xbe87bb5e	-0.26510137
34	0xbea3e6ac	-0.32011926
35	0x3b0dace6	0.0021617948
36	0xbf1aa6d4	-0.6041081
37	0xbe7a4b9d	-0.24442907
38	0xbe2440f2	-0.160404
39	0xbe9b4403	-0.30325326
40	0xbf134fbf	-0.5754356
41	0xbe6c2ace	-0.23063204
42	0xbe68f3a3	-0.2274919
43	0xbe66658b	-0.22499673
44	0xbe5e1e7d	-0.21691318
45	0x3e04c860	0.12967062
46	0xbe5086b4	-0.20363885
47	0xbf18d9de	-0.5970744
48	0xbe38df13	-0.18053846
49	0xbe8978ca	-0.26849967
50	0xbead0c77	-0.33798572
51	0xbe0ae243	-0.13562874
52	0xbe7338c8	-0.23752129
53	0xbe66b15d	-0.22528596
54	0x3db214be	0.086953625
55	0xbe05ac48	-0.13054001
56	0xbe8c70e9	-0.27429894
57	0xbf01ddd0	-0.50729084
58	0x3e90a49c	0.28250587
59	0x3e32069e	0.17385337
60	0xbf474054	-0.7783253
61	0x3ec17020	0.37780857
62	0xbe475779	-0.19466962
63	0x3ea7702a	0.32702762
64	0x3eae539d	0.34048167
65	0xbec7ec61	-0.3904753
66	0x3e27d06c	0.163881
67	0xbe0820fd	-0.13293834
68	0x3e310769	0.17287983
69	0xbe282a8a	-0.16422477
70	0xbed9d134	-0.42542422
71	0xbe33f0b6	-0.17572293
72	0x3eb1bc7f	0.34714124
73	0x3d69d592	0.057088442
74	0xbe9791fb	-0.29603562
75	0xbed5b30d	-0.41738167
76	0x3e23e49c	0.16005176
77	0xbedc899e	-0.43073744
78	0x3e4962e5	0.19666632
79	0x3e59d308	0.21271908
80	0xbe7f6f3e	-0.2494478
81	0xbeabbf8e	-0.33544582
82	0xbeb741c7	-0.35792372
83	0xbeab539a	-0.3346222
84	0xbf2cbd22	-0.67476094
85	0xbe13d338	-0.14436042
86	0xbecb2840	-0.39679146
87	0xbe6e8d2d	-0.23296042
88	0xbe333e98	-0.17504346
89	0xbf015b9f	-0.5053043
90	0x3f2a592d	0.6654232
91	0x3d85c4ca	0.06531675
92	0xbe3b85f6	-0.18312821
93	0x3e3cc1e7	0.18433343
94	0xbe113089	-0.14178671
95	0xbe166207	-0.14685832
96	0xbe3f03cf	-0.18653797
97	0x3ec1a3e5	0.37820354
98	0xbf09a376	-0.53765047
99	0xbd224e06	-0.03962519
100	0xbe872780	-0.26397324
101	0xbe87324f	-0.2640557
102	0xbdb74f8e	-0.08950721
103	0x3ebd7011	0.36999562
104	0xbeba6ef5	-0.36412778
105	0xbe774ccc	-0.2415039
106	0xbdece193	-0.11566462
107	0x3e9c1432	0.30484158
108	0xbea27b93	-0.31734905
109	0xbdf11d1a	-0.11773129
110	0x3e8f3b89	0.2797511
111	0x3da9eba2	0.082968965
112	0xbe99512b	-0.2994474
113	0x3d81f9b9	0.06346459
114	0xbeed86d8	-0.4639194
115	0xbd3013c1	-0.04298759
116	0xbe4f6286	-0.20252427
117	0xbeb95f26	-0.36205405
118	0xbecbf620	-0.39836216
119	0x3c030b0d	0.00799824
120	0xbdc71e51	-0.09722579
121	0xbe9a5370	-0.30141783
122	0xbea81605	-0.328293
123	0xbe0d0fef	-0.1377561
124	0xbf46797e	-0.7752913
125	0xbd997d53	-0.07494607
126	0x3e09c98b	0.13455789
127	0x3e174088	0.1477071
128	0xbed4914a	-0.41517097
129	0x3e21e45d	0.1580977
130	0xbd871f48	-0.06597763
131	0xbeb22d13	-0.34800014
132	0xbdc0f0ba	-0.09420915
133	0xbeac407b	-0.33642945
134	0x3df9a4de	0.12189649
135	0x3dc7c5ed	0.09754548
136	0xbe5007c3	-0.20315461
137	0x3e1641ec	0.14673585
138	0x3ee360c5	0.44409767
139	0xbf07b11b	-0.53004616
140	0x3e27652a	0.16347185
141	0xbef075e0	-0.4696493
142	0x3e84f23e	0.25966066
143	0xbee2d1bd	-0.44300643
144	0x3a6f1383	0.0009120034
145	0xbe4f8c3e	-0.20268342
146	0xbe912b8a	-0.2835353
147	0xbdfff9a3	-0.12498786
148	0xbec5660f	-0.38554427
149	0x3e0809b8	0.13284957
150	0x3e6de21f	0.2323079
151	0x3f108105	0.5644687
152	0xbe8789b7	-0.26472256
153	0xbe02b1b0	-0.12763095
154	0x3a33f384	0.0006864595
155	0x3e80751a	0.2508934
156	0xbeb653cc	-0.35610807
157	0xbeabd281	-0.3355904
158	0x3df69572	0.12040223
159	0xbf64e8fb	-0.89418
160	0x3e3e6344	0.18592554
161	0xbda7d0e2	-0.08194138
162	0x3f2f49b9	0.68471867
163	0xbe892bfa	-0.26791364
164	0xbd978366	-0.07398109
165	0xbed733d9	-0.42031744
166	0x3dc9265c	0.098217696
167	0x3ea9492d	0.3306364
168	0x3da2756b	0.07932552
169	0xbea7d8a1	-0.32782462
170	0x3e5662ce	0.20936128
171	0xbdd6871a	-0.10474987
172	0x3e4cb1aa	0.19989648
173	0xbf5cd16b	-0.86257046
174	0xbf531a05	-0.8246158
175	0xbda1d07e	-0.07901095
176	0xbea9291e	-0.33039182
177	0xbf29e1a6	-0.6635994
178	0xbe1120eb	-0.14172713
179	0x3e5c887e	0.21536443
180	0xbe34defc	-0.17663187
181	0xbe90bce1	-0.28269103
182	0xbf1b770a	-0.60728514
183	0x3e35b5ef	0.17745183
184	0x3d3e2231	0.046419326
185	0xbe2fa91c	-0.17154354
186	0xbe1a942b	-0.15095584
187	0xbf18b4ed	-0.5965107
188	0xbe514227	-0.20435391
189	0xbb252894	-0.0025201188
190	0xbf36bd1f	-0.71382326
191	0xbe355e10	-0.17711663
192	0x3e823e52	0.25438172
193	0xbdf422db	-0.11920711
194	0xbec88878	-0.39166617
195	0xbeb00eb8	-0.3438623
196	0xbe1c9125	-0.15289743
197	0xbf018047	-0.5058636
198	0x3ed29b7e	0.41134256
199	0xbd02a164	-0.031892195
200	0x3c8b0c49	0.016973631
201	0xbe7ac159	-0.24487819
202	0x3ee3a3a3	0.44460782
203	0xbd8c924e	-0.06863843
204	0xbe5007a1	-0.2031541
205	0x3ecd3086	0.40076083
206	0xbe7f9ebe	-0.24962899
207	0xbeb6322a	-0.35585147
208	0xbdc7559e	-0.09733127
209	0xbeebe10d	-0.46070138
210	0xbf0bb4ab	-0.5457255
211	0xbdc05e6d	-0.0939301
212	0x3dff8307	0.12476163
213	0xbe8b8a4c	-0.2725395
214	0xbe37e6da	-0.17959157
215	0x3d571519	0.052510355
216	0x3eb3bc95	0.35104814
217	0xbed6c0fa	-0.41944104
218	0xbf09743c	-0.53692985
219	0xbef4e3dd	-0.47830096
220	0xbe07edfa	-0.13274375
221	0x3e0ed844	0.13949686
222	0x3da27108	0.07931715
223	0xbf1b2ee3	-0.6061842
224	0xbd3d4a41	-0.046213392
225	0xbd9c3d89	-0.076289244
226	0xbef02e5b	-0.46910366
227	0xbf4ec6e3	-0.8077223
228	0xbe66e588	-0.22548497
229	0x3da28e3d	0.07937286
230	0x3ead3a59	0.33833578
231	0xbf27ce92	-0.65549576
232	0xbf26d8cd	-0.6517456
233	0xbdb8dfe8	-0.09027082
234	0xbb225dfe	-0.0024775262
235	0xbe09aa77	-0.13443933
236	0x3d4e94c4	0.050434843
237	0x3edeaeeb	0.43492827
238	0xbdea5eea	-0.11443885
239	0xbec22790	-0.3792081
240	0x3d4cd7c4	0.050010458
241	0x3ca66701	0.020312788
242	0xbe80c2dc	-0.25148666
243	0xbc9d5465	-0.019205282
244	0xbe074f46	-0.13213834
245	0xbec9c0c8	-0.39404893
246	0xbd1622ec	-0.036654398
247	0xbcdae00b	-0.02671816
248	0xbf1e8c0b	-0.6193244
249	0xbe5d936a	-0.21638265
250	0x3e0a8b29	0.13529648
251	0xbb89a445	-0.0042004907
252	0x3e2d78fa	0.1694068
253	0xbea533ba	-0.32266027
254	0x3d32f51d	0.04369079
255	0xbe8a9696	-0.27068013

gen.2.bias f4 [784]
0	0xbf70f7f9	-0.94128376
1	0xbf5cd5e0	-0.8626385
2	0xbf895828	-1.0730028
3	0xbf6be5d5	-0.9214757
4	0xbf76559b	-0.96224374
5	0xbf5b6ab0	-0.8570967
6	0xbf878916	-1.058871
7	0xbf8e2f28	-1.1108141
8	0xbf9635cd	-1.1735169
9	0xbf8d23bb	-1.1026529
10	0xbf6d0af3	-0.9259483
11	0xbf31d84b	-0.6947066
12	0xbf5e5119	-0.86842495
13	0xbf82fae7	-1.0232819
14	0xbf84292c	-1.0325065
15	0xbf8366be	-1.026573
16	0xbfad8fbe	-1.3559492
17	0xbf8e90aa	-1.1137898
18	0xbf4712ca	-0.77763045
19	0xbf5bb92b	-0.8582942
20	0xbf76a08d	-0.9633873
21	0xbf8837ff	-1.0642089
22	0xbf6a1f0f	-0.9145364
23	0xbf9860c9	-1.1904536
24	0xbf9d70aa	-1.2300007
25	0xbf85c538	-1.0450811
26	0xbf6238fb	-0.88368195
27	0xbf66f465	-0.90216666
28	0xbf997df4	-1.1991563
29	0xbf703db3	-0.93844146
30	0xbf8ab58b	-1.0836653
31	0xbf4d15a9	-0.80111176
32	0xbf907d75	-1.1288286
33	0xbf46dba8	-0.7767892
34	0xbf737785	-0.9510425
35	0xbf810b5b	-1.008159
36	0xbf728540	-0.94734573
37	0xbf2451b1	-0.6418715
38	0xbf8a2946	-1.0793846
39	0xbf2ed58e	-0.6829461
40	0xbf66e693	-0.9019558
41	0xbf7fc0ba	-0.9990345
42	0xbf9913a0	-1.1959114
43	0xbf7fa4d3	-0.99860877
44	0xbf93522f	-1.1509455
45	0xbf8c181f	-1.0944861
46	0xbf6be41f	-0.9214496
47	0xbf8ad98a	-1.0847638
48	0xbf6b7301	-0.9197236
49	0xbf88820e	-1.066469
50	0xbf8f1fc9	-1.1181575
51	0xbf88b4dd	-1.0680195
52	0xbf99dff8	-1.2021475
53	0xbf3a7fa6	-0.72851026
54	0xbf89e684	-1.0773473
55	0xbf70bf64	-0.9404204
56	0xbf7fcc10	-0.9992075
57	0xbf7dcbcb	-0.9913909
58	0xbf7a343e	-0.97735965
59	0xbf87128b	-1.0552534
60	0xbf7747f4	-0.96594167
61	0xbf8a9433	-1.0826477
62	0xbf4b5cc6	-0.79438436
63	0xbf5e83b3	-0.8691971
64	0xbf66fdff	-0.9023132
65	0xbf69c8be	-0.91321933
66	0xbf5b4570	-0.8565283
67	0xbf88c503	-1.0685123
68	0xbf6ebb31	-0.9325438
69	0xbf6f18e8	-0.9339738
70	0xbf86d393	-1.0533317
71	0xbf99f748	-1.2028589
72	0xbf866a6c	-1.0501227
73	0xbf81dcd8	-1.0145521
74	0xbf815b45	-1.0105978
75	0xbf8287ac	-1.0197654
76	0xbf680860	-0.9063778
77	0xbf866ab4	-1.0501313
78	0xbf87a691	-1.0597707
79	0xbf616262	-0.88040745
80	0xbf765b85	-0.962334
81	0xbf7bc154	-0.9834187
82	0xbf66b8bc	-0.9012563
83	0xbf9cbe5d	-1.2245594
84	0xbf34e381	-0.70659643
85	0xbf7a09ed	-0.97671396
86	0xbf5bf875	-0.8592599
87	0xbf8fee61	-1.1244622
88	0xbf81c4f6	-1.0138233
89	0xbf804eb9	-1.0024024
90	0xbf44d553	-0.76888007
91	0xbf329c98	-0.69770193
92	0xbf715943	-0.9427683
93	0xbf654687	-0.8956074
94	0xbf62047e	-0.88288105
95	0xbf87911c	-1.0591159
96	0xbf831f63	-1.0243953
97	0xbf9f9612	-1.2467673
98	0xbf9bf2a0	-1.2183418
99	0xbf946129	-1.1592151
100	0xbf9675ec	-1.1754737
101	0xbfc61489	-1.5475017
102	0xbfb2cf96	-1.39696
103	0xbfa80471	-1.3126355
104	0xbfab1940	-1.3367081
105	0xbf6d11c6	-0.92605245
106	0xbf4376b5	-0.7635301
107	0xbf78c52d	-0.97175866
108	0xbf734b2b	-0.9503657
109	0xbf96f589	-1.1793681
110	0xbf82eed4	-1.0229135
111	0xbf8aa007	-1.0830086
112	0xbf943c3e	-1.1580884
113	0xbf375c8a	-0.7162558
114	0xbf65db3c	-0.8978765
115	0xbf8ff344	-1.1246114
116	0xbf7d568a	-0.98960173
117	0xbf6fcbf6	-0.93670595
118	0xbf7281ad	-0.9472912
119	0xbf5b8f71	-0.8576575
120	0xbf5a0960	-0.85170555
121	0xbf58998a	-0.8460928
122	0xbf823eb5	-1.0175387
123	0xbf633157	-0.8874716
124	0xbf469762	-0.7757474
125	0xbf841ef2	-1.0321944
126	0xbf2d2b13	-0.6764385
127	0xbf21f395	-0.632623
128	0xbf42ceba	-0.7609669
129	0xbf6fd55e	-0.9368495
130	0xbf55b0a2	-0.83472645
131	0xbf6db8e8	-0.9286027
132	0xbf322d2d	-0.6960018
133	0xbf71251b	-0.94197243
134	0xbf8825e3	-1.0636562
135	0xbf652f62	-0.89525425
136	0xbf4c3e78	-0.7978282
137	0xbf900687	-1.1251992
138	0xbf872cbb	-1.0560526
139	0xbf7a6f64	-0.9782622
140	0xbf6016c3	-0.8753473
141	0xbf9d1e34	-1.2274842
142	0xbf89ec5d	-1.0775257
143	0xbf74ac68	-0.9557557
144	0xbf7f943e	-0.99835575
145	0xbf6c0f59	-0.9221092
146	0xbf84794f	-1.034952
147	0xbf4fc27c	-0.81156135
148	0xbf861253	-1.0474342
149	0xbf6bf9b6	-0.92177904
150	0xbf242132	-0.6411315
151	0xbf1a135e	-0.601858
152	0xbf085a4d	-0.5326279
153	0xbebf5668	-0.3737061
154	0xbe99c5bf	-0.3003368
155	0xbe5108db	-0.20413534
156	0xbe39a11c	-0.18127865
157	0xbe9b3c1b	-0.30319294
158	0xbeef6571	-0.4675708
159	0xbf065741	-0.5247689
160	0xbf1482ea	-0.5801226
161	0xbf2d1d79	-0.67623097
162	0xbf6ba9c2	-0.92055905
163	0xbf72a908	-0.9478917
164	0xbf95068a	-1.164262
165	0xbf4d764d	-0.8025864
166	0xbf992638	-1.1964788
167	0xbf9a2fa6	-1.2045791
168	0xbf6f05e0	-0.9336834
169	0xbf8eb199	-1.1147949
170	0xbf6947c8	-0.91125154
171	0xbf70b992	-0.9403316
172	0xbf5c9f10	-0.8618021
173	0xbf3ab8d5	-0.7293828
174	0xbf29d64f	-0.66342634
175	0xbf389d2d	-0.7211483
176	0xbf53ca61	-0.8273068
177	0xbf1f025b	-0.6211297
178	0xbebbcb57	-0.36678573
179	0xbe86a9c1	-0.26301387
180	0xbe3fec81	-0.18742563
181	0xbd4be8f3	-0.049782705
182	0x3c8fdcb6	0.017561298
183	0xbddda053	-0.10821595
184	0xbde37eea	-0.11108191
185	0xbdef6c85	-0.1169062
186	0xbe33f5c1	-0.17574216
187	0xbe8d245e	-0.27566808
188	0xbf16531d	-0.5872057
189	0xbeec618e	-0.46168178
190	0xbf5cb351	-0.86211115
191	0xbf8b9559	-1.0904952
192	0xbf838dee	-1.0277689
193	0xbf72a258	-0.94778967
194	0xbf5bc315	-0.85844547
195	0xbf930dc9	-1.1488582
196	0xbf539ac4	-0.8265803
197	0xbf63e3b5	-0.8901933
198	0xbf7554e1	-0.9583264
199	0xbf1fa1af	-0.62356085
200	0xbf618944	-0.88100076
201	0xbf674ead	-0.90354425
202	0xbf4ff4d5	-0.8123296
203	0xbee66006	-0.44995135
204	0xbf1be7c9	-0.6090055
205	0xbed110a6	-0.40833014
206	0xbea0b683	-0.31389245
207	0xbdab0255	-0.08350054
208	0xbe028e48	-0.12749588
209	0xbd3c88bd	-0.04602884
210	0x3c576076	0.013145557
211	0x3c2af2dc	0.010433879
212	0x3cab4991	0.020909103
213	0xbd41582f	-0.04720324
214	0xbdbaa238	-0.09112972
215	0xbe1b6a6a	-0.15177312
216	0xbe7c99f7	-0.24668108
217	0xbf0bf4c9	-0.5467039
218	0xbf304b2b	-0.688647
219	0xbf64790b	-0.89247197
220	0xbf9e45f6	-1.23651
221	0xbf7bb3b0	-0.98321056
222	0xbf6175f3	-0.880706
223	0xbf6d5808	-0.9271245
224	0xbf8741a8	-1.0566912
225	0xbf882a18	-1.0637846
226	0xbf80d8aa	-1.0066121
227	0xbf5688cf	-0.83802503
228	0xbf80e238	-1.0069036
229	0xbf4f1ee5	-0.80906516
230	0xbf379f11	-0.7172709
231	0xbf19bda1	-0.60054976
232	0xbea9a171	-0.33130983
233	0xbe26f4e4	-0.16304356
234	0xbe402197	-0.18762814
235	0xbe136ae1	-0.1439624
236	0xbe597ae9	-0.21238293
237	0xbdb216e3	-0.086957715
238	0xbd305b89	-0.043056045
239	0x3c5df403	0.013546946
240	0x3ce1db39	0.027570354
241	0xbdea34cb	-0.11435851
242	0xbe45b6eb	-0.19308059
243	0xbe80ee20	-0.25181675
244	0xbe338714	-0.17531997
245	0xbea5d2fb	-0.32387528
246	0xbf253747	-0.6453747
247	0xbf7c3d68	-0.985312
248	0xbf8f4946	-1.1194236
249	0xbf9f504a	-1.2446377
250	0xbf83651f	-1.0265235
251	0xbf81704a	-1.0112393
252	0xbf94cc16	-1.1624782
253	0xbf6624d4	-0.89899945
254	0xbf34d0a8	-0.70630884
255	0xbf8d543e	-1.1041334
